archived/vanderpol/models/adapter.pth (torch_old, 69813 bytes, 6 tensors)

layers.0.weight f4 [128, 2]
000000 6e a6 80 be 88 32 ce be bc 68 16 3f a3 5a af bf
       -0.25126976 -0.40272927 0.5875356 -1.3699535
000010 e8 64 9b 3d 60 99 17 be 07 ef 8a 3f 2a cd 04 3f
       0.07587606 -0.14804602 1.0854195 0.51875556
000020 12 35 7e 3f d3 b7 16 3e 04 7f 0e be 74 4d f1 bd
       0.9929973 0.14718561 -0.1391564 -0.11782351
000030 fb 42 b9 bd dd c4 74 3e 37 59 19 3f 0a 75 8b 3f
       -0.09045979 0.23903222 0.59901756 1.0895092
000040 f4 b4 4e bf 56 f5 88 bd a4 70 97 bf b6 38 3c bf
       -0.8074486 -0.06687419 -1.183125 -0.73524034
000050 f0 65 9a bf 24 b0 d7 3e b1 47 ce be 09 5e cc 3b
       -1.2062359 0.42126572 -0.4028907 0.006236796
000060 55 74 3d bc e3 30 ff 3e 4f 3b 53 bf 72 e7 16 bf
       -0.01156338 0.49841985 -0.8251237 -0.5894691
000070 79 b3 90 bf 91 a6 f8 3e 70 27 da 3e 63 b0 47 3f
       -1.1304771 0.4856458 0.42608213 0.7800352
000080 db 35 78 3f 4e 37 46 3f 80 7b ac bb 00 23 0f be
       0.96957177 0.7742814 -0.005263746 -0.13978195
000090 ff b3 90 3d e8 3e 87 bd 45 ab 56 3e 57 e3 cf 3d
       0.070655815 -0.06603795 0.20963772 0.101507835
0000a0 a2 40 55 bf fa fa 10 bf d9 96 01 3f 17 14 03 bf
       -0.83301747 -0.5663296 0.506208 -0.5120253
0000b0 ed c6 a3 be ff 2a 15 3f d4 80 98 3e 8c 8c 08 3e
       -0.31987706 0.5826873 0.29785788 0.13334864
0000c0 db 16 06 bf 5e 2e 5c 3f 7f 4e 3d bf 4b 7f ce be
       -0.52378625 0.8600825 -0.739479 -0.40331492
0000d0 92 8c 6a be 28 16 45 bf 81 66 c3 3e 16 b1 1b 3f
       -0.22905186 -0.7698693 0.38164142 0.60817087
0000e0 10 e2 89 bd 50 56 0e 3f 6a 40 e1 3e 37 a8 4f bf
       -0.06732571 0.5560045 0.43994457 -0.8111605
0000f0 ef 42 a1 be cf e2 31 bf 7e 1d 96 be 25 db 9d 3e
       -0.3149638 -0.6948671 -0.29319376 0.30831257
000100 84 d5 70 3f ed 03 59 3f 3c 82 a0 be 77 06 1c bd
       0.940758 0.84771615 -0.3134936 -0.038092103
000110 d6 5a e1 be ad 98 85 bf c4 62 65 3f ae 32 30 bf
       -0.44014615 -1.0437218 0.8960383 -0.6882733
000120 80 ac 1f 3c e8 35 f6 bd b3 10 8f bf dd 19 9d bd
       0.009745717 -0.120220006 -1.1176971 -0.07670949
000130 74 a8 f8 3e 4d e8 df be 49 ed c4 be 23 82 79 be
       0.4856602 -0.4373192 -0.38462284 -0.2436605
000140 bf 88 a1 bd b9 a3 a4 3e e9 8a 2e bf 90 1b 61 bf
       -0.0788741 0.3215616 -0.6818071 -0.8793268
000150 66 29 b4 bd 00 2e 52 3e 93 74 f2 3e 00 b6 82 3f
       -0.087969586 0.2052536 0.47354564 1.0211792
000160 61 63 b8 3e bf 0c d8 bd 87 4b 07 bd 00 2a 20 3e
       0.3601332 -0.10549306 -0.033031013 0.15641022
000170 d9 c0 45 3f a2 e1 ee bc 4f fa 31 bf 9c 32 26 bf
       0.7724739 -0.029160324 -0.69522566 -0.64920974
000180 1b 56 ad bf 21 e2 05 3f e9 3b 4b bf 34 44 82 bf
       -1.3541902 0.5229817 -0.7938829 -1.0177064
000190 85 7b 50 3f ba 5f 8f bf 1d 6d 9a 3d 8b 50 b1 3e
       0.81438476 -1.1201088 0.07540343 0.34631762
0001a0 7f e9 d5 3d 18 73 aa be 8c 6f 1f be a0 6f 65 3f
       0.104449265 -0.33290935 -0.15569896 0.8962345
0001b0 23 b9 00 3f 13 39 e5 3e 4b c8 6e 3d 13 ad 61 3e
       0.50282496 0.44770107 0.058296483 0.22038679
0001c0 62 e1 37 bf ca 5e 8c bd c2 9e 8b bf 14 ac 7d be
       -0.7182828 -0.06854017 -1.0907824 -0.24772674
0001d0 ff ba 2a 3f 4a 6b 48 3d 74 68 4e bf cc 6e 8a bf
       0.66691583 0.048930444 -0.8062813 -1.0815063
0001e0 ff e7 ec 3e 7d 9e e4 be c3 25 5c 3e 9e e1 b6 be
       0.4627075 -0.44652167 0.2149878 -0.35719007
0001f0 7f 13 ad bd e6 1a 82 3e dd 92 81 bf 59 22 67 be
       -0.08450984 0.25411147 -1.0122944 -0.22571696
000200 b3 a8 04 3e 0a 57 83 bf ea e6 f1 be 2d 19 bd 3e
       0.12954979 -1.0260937 -0.47246486 0.3693327
000210 4b 25 a8 3d ed 69 01 be fa 92 11 bf 87 1c e0 be
       0.08210238 -0.12638064 -0.56864893 -0.43771765
000220 2d 0a 39 3f 9b 96 3f bd a6 6c 35 3e 97 94 ba 3e
       0.7228115 -0.046774488 0.17717227 0.3644149
000230 75 73 97 be 6b a7 a4 3d a7 79 a2 3e 4d 72 f3 3b
       -0.29580274 0.08039745 0.31733438 0.007429397
000240 aa 73 7a 3e b7 73 50 3e 23 94 99 bf 17 7b b1 be
       0.24458185 0.20356642 -1.1998333 -0.34664223
000250 dc 4e 69 3f f4 5e aa 3f 58 c2 49 3f b7 98 5d bb
       0.91135955 1.3310227 0.7881217 -0.003381295
000260 24 74 0f 3f b5 13 63 bf f2 62 68 bf 15 79 7b bf
       0.5603659 -0.88701946 -0.9077598 -0.9823163
000270 d8 5b 43 3e 6c a3 90 3f d3 94 b3 bd f3 f4 a3 3e
       0.19078004 1.1299872 -0.0876862 0.3202282
000280 f0 5f 21 3e 00 d3 90 3f e2 92 98 3e 5c f7 87 3f
       0.15759254 1.1314392 0.29799563 1.0622363
000290 71 a5 04 bf f3 33 03 bf 62 3b 62 3f f0 d7 2b 3f
       -0.51814944 -0.51251143 0.8837186 0.6712637
0002a0 b0 7c 5e bf df 99 13 3f 7b 69 a0 3f 39 51 29 3f
       -0.8690901 0.57656664 1.253219 0.6613956
0002b0 24 0b 32 bd 1e 42 a0 3e 7f f4 8a 3e 8a 1d 5b 3f
       -0.043467656 0.31300443 0.2713966 0.8559195
0002c0 69 eb ff 3c ee 90 92 3e df d9 9a 3d 05 87 4e 3f
       0.031240182 0.28626198 0.07561087 0.80674773
0002d0 14 86 a8 bd 9b 38 10 3e 6a 40 98 bf 44 91 94 3e
       -0.082286984 0.14084093 -1.1894658 0.2901708
0002e0 eb 6b 5b bf 0a 54 8c bf b3 bb b4 bf 4a c2 25 3f
       -0.85711545 -1.0963147 -1.4119781 0.64749587
0002f0 50 02 e7 3e 0a 73 12 3f db 60 0e 3f 96 73 77 bf
       0.45118952 0.57206786 0.5561654 -0.96660745
000300 82 37 9f bf 80 8e 84 be f9 c9 4c bf 28 05 ac 3e
       -1.2438815 -0.2588997 -0.79995686 0.33597684
000310 83 60 53 bf be b3 0f bf 9e cd 6b bf 0e 23 21 bf
       -0.8256914 -0.5613364 -0.9211062 -0.62944114
000320 a2 ba 48 3f 4f 5e 97 3f f1 be 49 3f 93 e0 8b 3f
       0.7840978 1.1825656 0.7880698 1.092791
000330 36 8f 57 3f 3f 33 8b ba c6 34 71 3f 0e 6b ac 3f
       0.842029 -0.0010620131 0.9422115 1.347017
000340 35 56 18 3e 97 7d 94 3f f9 5d 36 3f 87 8d 83 3f
       0.14876635 1.1600827 0.7123714 1.0277566
000350 91 5e b0 be 96 e1 94 3e 84 e1 19 be 11 f9 0a bf
       -0.34447148 0.29078358 -0.15027434 -0.54286295
000360 1b 26 8d bf 8d 34 1b bf 40 41 7d 3e 89 d7 36 3f
       -1.1027254 -0.6062706 0.24731922 0.7142263
000370 5d 63 5f 3f 95 38 ae be 46 c1 57 bf 58 ff ee 3e
       0.8726099 -0.34027544 -0.84279287 0.46679187
000380 8e f2 b5 3f c9 3d ca 3d 40 67 5e bc 80 41 f1 3e
       1.4214647 0.09875066 -0.013574421 0.47120285
000390 a0 37 f0 3e bd 0c 52 bf 26 58 b9 3f 29 d5 4c 3f
       0.46917439 -0.8205069 1.4480026 0.80012757
0003a0 4d f0 85 bf 94 f4 de 3e 73 07 ff be cc 44 b9 3a
       -1.0463959 0.43545973 -0.4981037 0.0014134883
0003b0 22 a7 5f 3f c7 40 42 bd 50 34 95 bf d5 b0 1e bf
       0.873644 -0.047425058 -1.165659 -0.61988574
0003c0 dc ae b0 be 68 9a 60 be c6 12 90 be 82 5e 12 3f
       -0.34508407 -0.21933901 -0.28139323 0.5717546
0003d0 c9 f0 59 be 46 c9 27 bf 4c 50 2a 3e ce 86 18 3f
       -0.21283258 -0.65541494 0.16632193 0.59580696
0003e0 f7 54 9d 3d 7f 57 58 bf b7 f3 db be c0 a9 4d bf
       0.076822214 -0.8450851 -0.42959377 -0.8033714
0003f0 78 b0 7b 3c b3 b6 7f 3e b0 d0 bb 3e d3 ac d3 3e
       0.015361898 0.24972038 0.36682653 0.41342792

layers.0.bias f4 [128]
000000 6c 2e 6b 3f 6c 73 55 bc 58 4b f1 be 59 15 13 bf
       0.9186771 -0.013028007 -0.47127795 -0.5745445
000010 89 b1 b2 bc 8a e6 11 bf ba 23 1a 3f 09 5c 7e bf
       -0.021813171 -0.569924 0.60210764 -0.99359185
000020 0b 8a 9e bf 07 bd a7 bd af e8 71 bd 2b e4 5d 3f
       -1.2385877 -0.08190351 -0.059059795 0.8667628
000030 c9 81 85 bf 85 51 4d 3f 85 fb d7 be 67 1a 81 3b
       -1.0430232 0.80202514 -0.42184082 0.003939915
000040 ca 9b 3a 3d 85 3a 23 bf 13 93 69 3f 50 4f 40 3f
       0.04555873 -0.6376117 0.9124004 0.7512102
000050 27 ee 65 3f 8f 49 11 3f 5e ba a6 bf 24 5b 75 3f
       0.89816517 0.56752867 -1.3025625 0.95842195
000060 e7 fe 73 3b 0c de 0e 3f d1 df 6d bf af dd 70 bf
       0.003723079 0.55807567 -0.9291964 -0.9408826
000070 c0 63 9c bf 23 df 02 be fb b6 21 3e d2 9b 6c bf
       -1.2217941 -0.12780432 0.15792458 -0.9242526
000080 92 fe b0 ba de f6 3c 3f 93 6c 8c bd ac 3c 4f bf
       -0.0013503602 0.7381419 -0.068566464 -0.8095195
000090 0d 59 0c bf a2 e9 89 be 0c 42 18 3f f1 db 8d 3f
       -0.5482338 -0.2693606 0.5947578 1.1082746
0000a0 4a c7 3c 3f 5b 83 5f bd f9 af 08 3f ac eb 50 bf
       0.7374159 -0.05456863 0.5339351 -0.81609607
0000b0 c7 00 87 bf 32 55 2f 3f ff f5 97 bf 78 27 f1 3e
       -1.0547112 0.6848937 -1.1871947 0.47100425
0000c0 61 86 0b bf 96 fa 82 bd 26 26 a8 be e9 38 37 3f
       -0.5450192 -0.06395452 -0.32841605 0.71571213
0000d0 a7 2d be be c9 62 42 3f 25 10 28 3f 88 70 3e 3f
       -0.37144205 0.75931984 0.65649635 0.7439046
0000e0 67 bb 8c bf 1a 67 0f be d3 99 cb be 99 eb ca bd
       -1.0994691 -0.14004174 -0.39765796 -0.09908218
0000f0 e3 7e 0c 3f de b5 8e bf 5f 33 6c 3f 45 54 10 be
       0.54881114 -1.1149251 0.92265886 -0.14094646
000100 df be b2 be ce 5d 25 bf 8d 4d 78 3f 78 72 6a 3f
       -0.34911248 -0.6459626 0.96993333 0.91580915
000110 0b 2d 8b bf 1b 2a 72 3f 8f 6d 30 3f f5 2b 6a 3f
       -1.0873121 0.945955 0.68917173 0.91473323
000120 73 8b 77 3f ee a0 30 bd 7c 7c a7 3c 09 d1 03 3f
       0.9669716 -0.043122225 0.020445101 0.5149084
000130 b4 b3 cb 39 83 ed 9f 3e b9 05 45 be 95 0a 3f 3f
       0.00038853067 0.31235895 -0.19240464 0.7462552
000140 e9 ba 89 be 6c 21 65 3d a4 54 84 3e 5a 5f 09 3f
       -0.26900414 0.055940077 0.25845826 0.5366112
000150 2b 2b 51 bf 29 1d 92 3d 3f 8b 28 3f 93 17 37 be
       -0.81706494 0.07134468 0.6583747 -0.17880087
000160 01 da 13 3f 15 ff e4 3c 12 f2 d0 3e 94 22 34 bf
       0.5775452 0.027953664 0.40809685 -0.7036526
000170 97 c3 8d bd cc d8 c0 be ed bb 74 3f 10 01 a5 bd
       -0.069220714 -0.37665403 0.9559925 -0.08056843
000180 b8 88 6d be e5 26 77 bf 56 e8 64 3f 7f 86 75 3f
       -0.23196685 -0.96543723 0.89417017 0.9590835
000190 74 86 0d bf b5 c5 1f bf 57 e0 9f bf ed 91 b2 3c
       -0.55283284 -0.6241105 -1.2490338 0.021798098
0001a0 91 9b 67 3d 29 db b9 be aa 73 80 bf 06 51 73 3e
       0.056544844 -0.36300018 -1.0035298 0.23761377
0001b0 00 76 b5 bd 86 13 e1 bd e5 39 fd be f4 b3 5b bf
       -0.08860397 -0.10990052 -0.49458233 -0.8582146
0001c0 73 8a 61 be 3b aa 73 3f 8f fd 6f bf 89 ba f1 3d
       -0.2202547 0.95181626 -0.93746275 0.11803157
0001d0 9c ef 7d be 61 ce 87 3f 8a 30 a7 bf 66 36 b8 be
       -0.24798435 1.0609857 -1.3061688 -0.35979003
0001e0 64 a8 80 3f 03 f3 9b bf 25 50 44 3e 47 2f e4 be
       1.0051389 -1.2183536 0.19171198 -0.4456732
0001f0 7b b1 21 3d 6b 0a f5 bd eb 58 52 3f e4 52 92 be
       0.0394759 -0.11964878 0.8216693 -0.28578866

layers.2.weight f4 [128, 128]
000000 17 fb 50 be 53 82 58 bf 94 d6 f6 bc 26 bf 2b bf
       -0.20408283 -0.8457386 -0.030131616 -0.67088544
000010 57 66 fd 3d cb af aa 3d 3e a0 2b 3e e9 51 a6 bd
       0.123730354 0.08334311 0.16760346 -0.08121092
000020 0b f6 f5 bd 53 f9 ab bd b1 aa c5 be 4a 0d c5 3d
       -0.120098196 -0.08397164 -0.3860679 0.09621675
000030 11 4e 2b be 38 98 b6 be 2f 09 9f be a7 11 e9 3e
       -0.16728999 -0.3566301 -0.31061694 0.4552128
000040 d9 e8 b6 3e 34 df a7 bd 9c 41 d2 3c ec 8d 20 3e
       0.35724524 -0.081968695 0.02566605 0.15679139
000050 25 b6 96 be 8f 4a ed be 72 d6 8e 3d 1c b8 a6 3d
       -0.2943584 -0.46345946 0.06974496 0.08140585
000060 af 31 c6 3e 3d 5c ba be f0 5b 92 3c 01 f7 cf be
       0.3870978 -0.36398497 0.017866105 -0.40618137
000070 08 a6 9a 3d 85 6c 65 bf ec 8b 89 bf 49 0b d9 bd
       0.07551199 -0.8961871 -1.0745826 -0.105978556
000080 26 b1 22 3e 55 d3 fd 3d a8 25 9b bf dd 5d 3c bf
       0.1588789 0.12393824 -1.2120867 -0.73580724
000090 2a 9f 9c bd 39 01 28 bf bc 98 19 be 38 26 8e 3d
       -0.07647546 -0.65626866 -0.1499967 0.069408834
0000a0 40 ce 98 3d d4 f0 34 bf 83 58 31 3e b7 67 b6 3e
       0.07461214 -0.70679975 0.17318921 0.35626003
0000b0 70 90 23 bf 17 0c b2 3d c9 d4 62 bf 41 f1 d1 be
       -0.6389227 0.08693712 -0.88605934 -0.41004375
0000c0 e9 1f 18 bf 98 33 4c bf 46 ba 78 bf 07 3a b2 3d
       -0.5942369 -0.79766226 -0.9715923 0.08702474
0000d0 89 92 88 bf 01 13 3b 3e 6b f6 82 3e 9d c2 51 3e
       -1.0669719 0.18268968 0.25578627 0.20484395
0000e0 87 fa 3f bf 98 22 8d bf 94 15 08 be 33 49 0d bf
       -0.7499165 -1.1026182 -0.13289481 -0.5518982
0000f0 30 06 d6 be bc 34 83 be c4 e1 07 3e 19 dd 98 bf
       -0.41801596 -0.2562617 0.13269717 -1.1942474
000100 dc 89 84 bf 40 72 72 3e ac 9e 90 3d 17 a7 7b be
       -1.0354571 0.23676395 0.07061514 -0.24575458
000110 fc 44 ea bf 79 72 3a 3e 3d a2 0e 3e a1 56 b2 3d
       -1.8302302 0.1820773 0.13929076 0.087079294
000120 95 49 ee 3d 01 58 9e bf 45 4a b7 3e e6 b6 3f 3d
       0.116351284 -1.2370607 0.3579885 0.046805285
000130 00 5c d8 bd d1 82 2d bf d1 d9 9f bb 79 ea 51 3e
       -0.105644226 -0.67777735 -0.0048782607 0.204996
000140 15 e1 9f 3d 9f 51 16 3e 7e e2 d4 be d5 f0 8a 3e
       0.07806603 0.14679573 -0.4157905 0.27136865
000150 16 6e b0 bd ec f6 fb 3e e8 41 de 3d ae 4c d7 3e
       -0.08614747 0.49211824 0.10852414 0.4205069
000160 32 32 17 3e 65 d9 8d 3e f7 0c 8e 3e 38 5c f1 be
       0.14765242 0.2770492 0.27744266 -0.4714067
000170 c9 36 38 bf ee 86 da be d6 a2 00 3e 02 0c 7e bf
       -0.71958596 -0.42681068 0.12562117 -0.9923707
000180 25 ac 55 bf f7 26 6f 3e 84 e0 9d be 6b 8c 76 be
       -0.83465797 0.23354708 -0.30835354 -0.24077003
000190 25 52 b2 3c ec 57 45 bc 78 89 24 bf 79 2c b0 3e
       0.021767685 -0.012044888 -0.6427226 0.3440893
0001a0 25 46 d1 3e 74 52 1b 3e c9 f7 aa be b3 24 cb be
       0.4087383 0.15168172 -0.3339217 -0.39676437
0001b0 f3 61 80 be 40 9e 9c 3e aa 19 28 bf bb de 7a bc
       -0.2507473 0.30589485 -0.6566416 -0.015311892
0001c0 e3 bc ad be 38 68 80 3e bf 89 54 bf 6c e5 fb 3e
       -0.33933172 0.25079513 -0.83022684 0.49198472
0001d0 2b ca b3 be 70 db 3d 3d bb 0d 75 bf d4 ae 45 3d
       -0.3511518 0.04635185 -0.95724076 0.048262432
0001e0 a5 9a e8 3d 3f 0a 4f 3d 51 c6 2d bf a9 ab c8 3e
       0.11357621 0.05054688 -0.6788073 0.39193466
0001f0 4b 79 6b bf f5 fd 53 bf 52 4f 01 3e 03 56 0c 3e
       -0.91981953 -0.8280938 0.12627915 0.13704686
000200 7b c4 25 bf bc 0d 11 3e 42 6e 11 3d 6c 4b 0a 3f
       -0.6475293 0.14165395 0.03550554 0.54021335
000210 a4 5b 08 3f 0f 74 ab 3d 6f 1e 18 bf 94 01 11 3f
       0.5326483 0.08371746 -0.5942144 0.56643033
000220 e1 ed 3c bc a0 8e 23 3f a3 7d 3b bf da 4f bf bf
       -0.011531324 0.63889503 -0.7323858 -1.4946244
000230 25 9c 68 3f 8d 18 70 be 70 89 dc be 0c 77 4f be
       0.9086326 -0.23446865 -0.43073606 -0.20260257
000240 2c e1 19 3f 20 98 1c bc ff 10 9a be af 82 a0 bd
       0.6010921 -0.009557754 -0.30091092 -0.07837426
000250 05 be b7 be 99 85 3b 3e d3 0f 08 3f a3 86 58 be
       -0.3588716 0.18312682 0.53149146 -0.2114511
000260 9b 4b e7 be 31 32 8b be ac 08 83 3f b5 54 0d 3f
       -0.4517487 -0.2718673 1.0237021 0.5520738
000270 20 cd e4 3e 73 26 d4 3d d1 8c 5c 3e 69 1d db 3e
       0.44687748 0.10358896 0.21538092 0.42795876
000280 69 a0 ba 3e cd 5f b3 bf 1d 03 27 3e af b6 fd 3d
       0.36450508 -1.4013611 0.16309781 0.1238836
000290 f7 d9 4e bd 35 c8 82 be f2 1a 90 3e 5b 0d 8c bf
       -0.050500836 -0.2554337 0.28145558 -1.0941576
0002a0 fd 62 12 bf dd d2 83 3e c6 e3 20 bf 64 d5 50 3f
       -0.57182294 0.25746813 -0.62847555 0.8157561
0002b0 29 fa e5 3e bb 39 fa be c5 ea d3 3f af 4a 29 be
       0.4491742 -0.4887217 1.6556021 -0.16532396
0002c0 3a 05 23 bd f4 4e 92 3e e3 bb 0a 3e 82 10 dc be
       -0.039799906 0.2857586 0.13548236 -0.42981344
0002d0 10 7d 07 3e d8 6f c4 be 3a a6 12 bd a6 08 d9 be
       0.13231301 -0.3836658 -0.035803057 -0.4238941
0002e0 0b 18 a9 be 05 05 55 bd 1b 92 6b be d9 05 90 3e
       -0.33026156 -0.05200674 -0.23004954 0.2812946
0002f0 ea 13 f4 3d 72 7c 15 3f 67 e8 1d bf bf 04 04 be
       0.11917861 0.58393013 -0.6168274 -0.12892435
000300 d9 d4 7d 3e 92 67 75 bf af 58 93 be ef f9 c8 be
       0.24788226 -0.9586116 -0.28778598 -0.39253184
000310 dd e4 c8 3f 63 38 15 be 3d 7a 98 bf 62 53 f2 bd
       1.5694844 -0.14572291 -1.1912304 -0.1183231
000320 cc 09 55 be 6a 6c c1 3e 0a 35 a4 3e da 70 c7 3e
       -0.20804518 0.37778026 0.32071716 0.38953286
000330 33 38 3d 3d e6 3f e8 be e6 c5 65 3e fa 4b 0e bf
       0.046196174 -0.4536125 0.22438774 -0.5558468
000340 55 94 8a 3e d0 b1 6b 3e 56 d6 c4 bd db 9d 72 3e
       0.27066293 0.23017049 -0.09611194 0.2369303
000350 c3 7d f1 3d 2a 53 34 3f e2 8c fe be 76 b4 92 be
       0.11791565 0.704394 -0.4971686 -0.28653306
000360 ed a9 75 be 0d 45 f1 bc 41 8c 08 bf ec 5c 48 3c
       -0.23990603 -0.029451871 -0.5333901 0.012229186
000370 2f 60 84 3e 7a 9c d8 be e1 79 cf bd f1 60 8e 3d
       0.25854632 -0.42306882 -0.101306684 0.06952084
000380 b6 dd d8 3d e2 4d 60 3e f8 b1 b7 be 24 64 db be
       0.10589163 0.2190471 -0.35877967 -0.4284984
000390 de 4e 0c 3f 72 a9 25 3f 02 bc 53 3f a3 af 06 3f
       0.5480784 0.6471168 0.8270875 0.5261175
0003a0 d2 51 9f 3d 5f 67 08 3f a7 68 e6 3e 5e 18 f5 3d
       0.07779278 0.5328273 0.45001718 0.11967538
0003b0 0c a8 00 3f ec d3 88 be 6a 66 a5 3e 85 98 1c 3e
       0.5025642 -0.26724184 0.32304698 0.15292557
0003c0 6f 27 e6 3e 85 f5 f7 be 80 75 b0 3e 44 0a 19 3f
       0.4495196 -0.48429504 0.34464645 0.5978129
0003d0 0b ce ee be e8 22 be bf dd ea 0a 40 68 b1 5b 3e
       -0.46641573 -1.4854403 2.170585 0.21454394
0003e0 c3 59 83 bf a3 3b 0e 3f 3c ae f0 3d bf 3f 04 3d
       -1.0261768 0.5555975 0.117519826 0.032287356
0003f0 4e 20 fd 3d 8c be b7 3d 92 7f dc be ab 1a 2b be
       0.12359677 0.08971891 -0.43066078 -0.16709392

layers.2.bias f4 [128]
000000 55 0c 7a 3d 33 f0 09 bf 46 1a c1 3e b5 a1 0a bf
       0.061046917 -0.5388214 0.37715358 -0.54152995
000010 fe 02 3e 3d 30 41 aa bd 60 3f 13 3e 41 47 cc 3c
       0.046389572 -0.08313215 0.14379644 0.02493632
000020 26 22 7d bc 29 e3 55 3d 4f 11 cf be 98 87 b4 bd
       -0.015450036 0.05221859 -0.40442893 -0.08814925
000030 78 3e c7 bd bb c1 4d be c7 81 ab bd d9 13 93 3c
       -0.09728712 -0.20093434 -0.083743624 0.0179538
000040 be d2 56 3d 1d a7 ce 3e 92 3d 64 be 1e 23 87 be
       0.052447073 0.40361872 -0.22289112 -0.2639398
000050 04 d9 98 3c e8 54 e0 3c 12 6e dc bd 00 10 0f ba
       0.018658169 0.027384236 -0.10763182 -0.0005457401
000060 9f 4f bd 3e 3a 7f 06 3d cd 06 85 be 1c 14 1c bd
       0.3697481 0.032836176 -0.2598175 -0.038105115
000070 d7 f7 13 bf a1 be 12 3d 08 a3 39 3e 29 c7 ab be
       -0.5780005 0.03582633 0.18128598 -0.33550385
000080 17 74 b3 3d d3 8a 89 bb 0b 98 21 bd 14 7c 24 be
       0.08762377 -0.0041974573 -0.03945164 -0.16062957
000090 b6 b2 cb 3e 3d ae 41 be b4 cd 20 3d 05 e4 47 3e
       0.39784783 -0.18914123 0.039258674 0.19520576
0000a0 36 2f 3d bd 9e 70 b6 3e 06 22 d9 bc e7 4e 8f bd
       -0.046187602 0.35632795 -0.026505481 -0.06997471
0000b0 8c 38 ea be 9f 50 e1 3c 1e 1d ff bc fb b9 af 3d
       -0.45746267 0.027504263 -0.031141814 0.08580395
0000c0 23 49 89 be b0 26 e9 ba b0 6e 89 3e 44 c6 c3 3c
       -0.2681361 -0.0017788019 0.2684226 0.023898251
0000d0 9d 47 ab 3e 5a 42 d6 3d a9 76 2a bf 1e 27 13 bd
       0.33453074 0.10461874 -0.6658731 -0.035925977
0000e0 99 2f 16 be 1f 8a 26 bf 6f 25 09 3c 8a e8 c6 3e
       -0.14666595 -0.65054506 0.008370741 0.38849288
0000f0 11 c7 3e be 04 57 c9 3c c6 de c1 3e c5 5c 3d bd
       -0.18630625 0.024577625 0.37865275 -0.04623105
000100 e2 9b bd 3e 0d f0 13 bf cf f7 a9 3a fd 9e a4 3c
       0.37032992 -0.57788163 0.001296753 0.020095343
000110 36 ee f3 3b 39 a9 5d be 67 7b 9c 3e 42 16 0e bf
       0.0074441684 -0.21646585 0.305629 -0.5550271
000120 58 72 82 bd a6 bc d0 be d0 f1 43 bd 09 b8 43 bc
       -0.063694656 -0.40768927 -0.047838032 -0.011945733
000130 ab 6e 5d bf e1 8f a2 bd 75 1e e8 3c 3a 9a 0b 3e
       -0.8649699 -0.07937599 0.028334836 0.13633052
000140 06 22 c8 be b6 a2 bc be ae 9f a0 3e 78 ec 97 bb
       -0.39088458 -0.3684289 0.31371826 -0.0046363436
000150 e3 fc 31 be dd 85 3c bf 27 91 1f bf 81 3e d7 3e
       -0.17381625 -0.7364176 -0.6233086 0.42039874
000160 df 83 dd 3e 97 63 c7 3e 20 8d 1c 3d 8d c5 99 3e
       0.43264672 0.3894317 0.038220525 0.30033532
000170 92 a7 d6 3e b9 e1 9a be 82 0d cc 3e 8b 0f 1c bf
       0.4192472 -0.30250338 0.39854056 -0.60961217
000180 8c 8a d5 bc 60 b7 18 bf 7a 79 75 bd 88 94 45 3e
       -0.02606704 -0.5965481 -0.059930302 0.19294941
000190 ca 38 29 bf 9e 82 ae bd 84 4f 4a be f3 36 de be
       -0.6610228 -0.08521007 -0.19756895 -0.43401298
0001a0 e3 bf 51 3e c0 cd 18 bf 01 22 63 3e b4 9e 73 be
       0.20483355 -0.5968895 0.2218094 -0.23791009
0001b0 65 2f cf be f1 33 9e bd 06 16 ab 3e 26 82 56 3e
       -0.40465847 -0.07724751 0.3341524 0.20948085
0001c0 80 07 04 3a c4 d0 16 bf dd 3a 1a bd 12 12 e2 3e
       0.0005036518 -0.589123 -0.037653793 0.44154412
0001d0 2c fc af bd f6 7e b7 be e1 dd 21 bf a5 9d 93 be
       -0.0859302 -0.3583905 -0.63229185 -0.2883121
0001e0 25 53 07 bd 72 db 98 3e 4e c1 9d 3e 4b 8d c4 bc
       -0.033038277 0.29854923 0.30811542 -0.023993155
0001f0 70 07 f4 be 6c 2a b7 bd 33 8b 56 bc 58 bd 4d 3e
       -0.47661924 -0.08943638 -0.013094711 0.2009176

layers.4.weight f4 [2, 128]
000000 7d 5d 1d bb 0d fd 66 be 79 ca e9 3e 86 93 bd be
       -0.0024012022 -0.22557469 0.45662287 -0.37026614
000010 14 a1 91 bc 04 87 6d 3d d0 34 06 3f f1 ef 0d bd
       -0.017777003 0.05799009 0.52424335 -0.034652654
000020 50 c9 12 bf 79 dd 02 3f a9 cd c3 be cc 61 c6 3c
       -0.5733843 0.5111919 -0.38242844 0.024216555
000030 ed 9a b3 bd 39 84 39 3e 00 4d 24 ba 48 02 d9 bc
       -0.08769784 0.18116845 -0.00062675774 -0.026490346
000040 1e 91 0f bd f2 c8 e1 3e 6c 21 a5 be 63 cf b9 be
       -0.035050504 0.44098622 -0.3225206 -0.36291036
000050 e4 d4 64 bd f3 d2 93 3d ce fd 8f bc d0 c4 65 bc
       -0.05586709 0.0721797 -0.017577078 -0.014023975
000060 38 63 ce 3e 50 ca b3 3b 7b 1c 6d bf 9d 35 3e 3d
       0.40310073 0.005486764 -0.9262158 0.04643785
000070 40 36 ca bf ee a9 d9 3c c7 a9 9e 3d c5 25 37 bf
       -1.5797806 0.026570287 0.07747226 -0.71542007
000080 70 43 be bb 93 10 16 bd ac cb 56 bd 00 e6 8c 3d
       -0.005806379 -0.0366369 -0.05244033 0.068798065
000090 5a 86 83 3e aa 98 26 3e a0 40 cf 39 c0 07 2f 3e
       0.2568844 0.16269174 0.00039530266 0.170928
0000a0 61 05 9a 3c af 20 07 3f e5 08 bd bb e3 45 2f 3d
       0.018801393 0.52784246 -0.0057688826 0.04279126
0000b0 4b 9a c4 be b9 33 da 3c d0 57 42 bd cf b6 b9 3e
       -0.38398966 0.026635991 -0.047447026 0.36272284
0000c0 e5 20 a9 bd da 92 05 3d 9f 66 20 3e c2 f2 4b 3d
       -0.08258227 0.03261075 0.15664147 0.04979206
0000d0 0d 69 7a 3e 55 fc cc 3e 31 b4 cd be c0 e0 43 bc
       0.24454136 0.40036264 -0.40176538 -0.01195544
0000e0 52 a0 41 bf dd e0 a5 bf 9c ad a0 bd 44 0e e6 3e
       -0.75635254 -1.2959248 -0.07845613 0.4493276
0000f0 e1 61 2b bf 5e 3f bd 3e a6 fc 81 3e 3f f6 17 be
       -0.66946226 0.36962408 0.25388068 -0.14840029
000100 f5 1b 5d 3e ea 06 93 bf 18 5e e7 3c 4a c3 9e 3e
       0.21592696 -1.1486485 0.02824311 0.3100837
000110 c9 f5 03 3e 8a 7f 54 be fe 0b b4 3e 7b e5 06 bf
       0.12886728 -0.20751777 0.351654 -0.5269391
000120 b0 ef af 3b c7 0a 36 bf 52 a5 ac bd 71 fb ec ba
       0.005369149 -0.71110195 -0.0842997 -0.0018080306
000130 80 70 f6 3c cd 98 be 3d b1 d4 3e bd 4d 19 62 3c
       0.030082941 0.09306488 -0.046589557 0.0137999775
000140 a4 64 cc be ae 4f ac bf fc 3c 8a 3e 96 2e 0b 3d
       -0.39920533 -1.3461816 0.26999652 0.033979975
000150 07 4d c5 3e a0 d9 68 bf 3c 4f 59 bf 86 d6 8f 3e
       0.3853533 -0.9095707 -0.8488653 0.28093356
000160 eb 35 8f 3e bf c0 d7 3e 6a 85 19 3d 51 e1 fc 3e
       0.27970824 0.4213924 0.03748075 0.49390653
000170 53 69 d8 3e b5 ee bf be ee 9b e0 3e b4 8d 3a bf
       0.42267856 -0.37486807 0.43868965 -0.7287247
000180 be 9c 35 3d e0 24 77 bf 7a d6 a1 bb 95 11 14 3f
       0.044338934 -0.9654064 -0.0049388977 0.5783933
000190 50 32 62 bf 6b 77 00 3d 62 76 15 3e 93 7d ef be
       -0.8835802 0.031363886 0.1459594 -0.46775493
0001a0 1c 32 d4 3d af 72 52 bf 16 d8 14 3f 47 0c be 3e
       0.1036112 -0.82206243 0.5814222 0.37118742
0001b0 65 a7 22 bf 10 c6 eb bc fd 23 85 3e b1 83 06 3f
       -0.63536674 -0.028780967 0.2600402 0.52544695
0001c0 6d bc b4 bd 41 c7 2b bf 66 34 6c 3d 5e a4 ab 3e
       -0.08825002 -0.6710091 0.05766716 0.3352384
0001d0 04 ad dc 3c ab 34 b2 be 3d ab 03 c0 ad 45 6e bf
       0.026937969 -0.34805807 -2.0573266 -0.93075067
0001e0 ac f3 ab bd 93 5e f8 3e 21 ca d2 3e a6 48 75 3d
       -0.08396086 0.48509654 0.41169837 0.059883736
0001f0 12 85 7a bf 3a 5a f9 be fc 89 dc 3b 68 a4 f6 3d
       -0.978593 -0.4870165 0.006730316 0.12043077
000200 40 a4 92 3f a8 b5 4a bf e6 a8 8c 3e d7 a5 de bf
       1.1456375 -0.79183435 0.2747261 -1.739436
000210 94 94 c6 3c 1e 5d 56 3d 71 60 71 3d a7 0e 85 bd
       0.02424077 0.052334897 0.058929864 -0.06496935
000220 1c ea ac 3e c1 12 df bd 1d 64 22 bf 84 b6 0b bb
       0.3377236 -0.10892249 -0.6343401 -0.0021318505
000230 8b 5b 0f 3c 45 79 f4 3c 1e 0f 5b 3d 4d 59 48 bd
       0.008749853 0.029842982 0.053481214 -0.04891329
000240 82 e5 78 bc 0a ad 85 3e 70 ec 69 3f a0 df 69 3f
       -0.015191438 0.2610858 0.913764 0.9135685
000250 58 a8 9c bd 40 33 f4 bb 6f 76 8c bd 24 ab 8d bd
       -0.076492965 -0.0074523985 -0.06858527 -0.06917408
000260 f7 ca a9 3e 27 6c 4d be eb 8f 2f 3e 27 5d 61 bd
       0.33162662 -0.20060788 0.17144744 -0.055020478
000270 32 cf 9a bf 62 0b 24 3d 0d 85 fe 3e d8 59 47 3d
       -1.2094481 0.040049918 0.49710885 0.048669666
000280 a0 79 30 bb 4d 5b 09 bf 0e 16 28 bd c2 76 8c 3f
       -0.0026927963 -0.5365494 -0.041036658 1.0973742
000290 d5 b9 f5 3e 06 27 8d 3c 29 c1 e6 3e ad be d2 3e
       0.4799334 0.017230522 0.45069245 0.411611
0002a0 fe 2b a3 bb fb 5f 83 3d df 07 b5 3e 9d c0 8c bc
       -0.0049796095 0.06414791 0.35357568 -0.017181689
0002b0 72 b9 da bf c1 8a 87 bc b8 da 4c 3b 2c 7c 0b be
       -1.7087843 -0.016545655 0.0031258296 -0.13621587
0002c0 00 41 6f 3f 28 db 15 bc a3 40 c7 3e 6a 9f 41 3d
       0.9345856 -0.009146489 0.389165 0.04727117
0002d0 c6 ed f4 3e 57 cd d5 bd 62 12 07 bf ef f6 1c 3b
       0.47837657 -0.10439556 -0.52762425 0.0023950895
0002e0 c0 73 62 be d8 0a 94 bf c5 12 4a 3d d4 19 d8 3e
       -0.22114468 -1.1565809 0.049334306 0.42207205
0002f0 27 e0 d5 be b4 b1 88 be 45 6d ee 3e 3a f0 ff 3d
       -0.41772577 -0.26698077 0.4656774 0.124969915
000300 fc 8b 02 3f 2b 80 3a bf 86 4d 3d bd 9b 47 16 bf
       0.5099485 -0.7285182 -0.04621651 -0.5870301
000310 ab 11 9d be 27 76 c5 3f 7d f0 00 3f 17 b4 5f bf
       -0.30677542 1.5426682 0.50366956 -0.8738417
000320 37 3e a2 bd 1c 35 4c bf f0 46 7f 3c 10 0d 09 3f
       -0.07922023 -0.7976854 0.015580878 0.53535557
000330 28 01 49 bf 37 7a 94 bd 65 48 88 bd 13 d7 d0 3e
       -0.7851739 -0.07249873 -0.06654433 0.4078909
000340 0e 66 1e bf a4 9c d9 be 58 f1 ee 3e 17 83 10 bd
       -0.61874473 -0.4250232 0.46668506 -0.035281267
000350 ed 7e 27 bf ac 8a c7 bf d2 05 b1 bf 85 53 e4 3e
       -0.6542805 -1.5589194 -1.3829901 0.4459497
000360 55 58 f1 3e d9 0b ad 3e 17 ac 63 3c 08 44 a4 3e
       0.47137704 0.33798102 0.01389601 0.32083154
000370 3a 72 d5 3e 4d fa 51 3d f7 9f e4 3e bc a1 90 3e
       0.4168871 0.051264096 0.44653293 0.28248394
000380 1f a6 b4 3c 86 ae 4a bf f1 20 01 bd 1b e1 ea bb
       0.022051869 -0.7917255 -0.031525556 -0.007167948
000390 f5 a0 62 bf 89 d2 5f bd f5 3d a5 3b 57 78 53 3f
       -0.8852685 -0.05464414 0.0050427862 0.826055
0003a0 97 d3 93 3e c5 54 90 bf 2e e2 2f bb 46 23 41 bf
       0.28872368 -1.127587 -0.0026837694 -0.7544445
0003b0 99 43 51 bf 5a 0c 7f bc 22 84 e5 3e 47 7b 02 3e
       -0.8174377 -0.01556691 0.44827372 0.12742339
0003c0 c0 85 7d bd 75 ce b1 be a5 8e 3b 3d 95 98 d0 3e
       -0.061895132 -0.34727827 0.045790333 0.4074141
0003d0 ad 16 81 3d ee 71 21 bf 8f ef 79 bf e7 f9 00 bf
       0.06303153 -0.6306447 -0.9763116 -0.5038132
0003e0 0c 97 1f 3d 8b 86 9b 3e 59 b2 c7 3e 17 4c 6f bd
       0.03896241 0.30376086 0.39003256 -0.058422174
0003f0 79 c2 b6 bf 00 b1 5d 3c 92 1a 5e 3c d4 12 e3 3e
       -1.4278098 0.01353097 0.01355614 0.44350302

layers.4.bias f4 [2]
000000 3f 0f 96 3e 3c 91 85 3e
       0.29308507 0.26087368
