softswitch/models/actor_2800.pth (torch_old, 1226 bytes, 3 tensors)

fc1.weight f4 [25, 2]
000000 d3 8b 86 bf 09 c0 0c bf 43 a5 2d bf d9 b7 d6 3d
       -1.0511421 -0.5498052 -0.67830294 0.10484285
000010 85 fc 05 bf c2 d9 ca bd c4 e2 94 bf 81 12 13 bf
       -0.5233844 -0.09904815 -1.1631703 -0.5745011
000020 b4 9f 96 be 75 ae 25 bf d3 5c ec be 4f 93 b7 be
       -0.2941872 -0.64719325 -0.4616457 -0.35854575
000030 e7 d3 89 bf 94 7a 70 3e f1 af 86 bf 21 31 b2 bf
       -1.0767792 0.2348426 -1.0522443 -1.3921243
000040 99 22 b6 be e7 fa 8b 3e d5 2b 45 bf 18 57 b1 be
       -0.3557327 0.2733986 -0.7702001 -0.3463676
000050 cc 9f 97 bf 6f a0 40 bf a7 7f 19 3e 29 0e 07 3e
       -1.1845641 -0.752448 0.14990102 0.13188995
000060 c1 ce 03 bf a9 76 19 bd 0e de 67 bf 65 5e 1a bf
       -0.51487356 -0.03746668 -0.90573204 -0.60300285
000070 5e f6 09 c0 e2 85 b8 bf 86 37 8e 3e 32 c7 91 be
       -2.155662 -1.4415858 0.27776736 -0.28472286
000080 e0 f6 3e 3f 79 4c 96 3f 66 2f cf 3d b2 6b 99 3d
       0.7459545 1.1742088 0.101164624 0.074912444
000090 5c 81 84 bf 77 65 ac 3e a8 b5 74 bf 17 ee dc be
       -1.0351977 0.33671162 -0.95589685 -0.43150398
0000a0 90 a5 f6 bc 19 c4 05 3e 93 8f ac be c5 f4 bd be
       -0.030108243 0.13063087 -0.33703288 -0.37100807
0000b0 b7 05 23 bf 74 dd eb be 98 5b 3a bf ad 95 b1 be
       -0.63680595 -0.46067393 -0.7279601 -0.34684506
0000c0 91 23 11 bf 44 fb 3e bd
       -0.56694895 -0.046626344

fc1.bias f4 [25]
000000 13 ef 34 3e a4 8a 61 bf 7a ba 6b bf c2 2a 47 3e
       0.17669325 -0.88102174 -0.92081416 0.19449905
000010 c5 e6 32 3e f8 67 c8 bf 2b e3 65 3f cb 0a 30 3c
       0.17470844 -1.5656729 0.89799756 0.010744761
000020 58 46 a7 bf 0e 51 92 3e 11 6e 6a 3c b6 b5 1a bf
       -1.3068342 0.28577465 0.014308468 -0.6043352
000030 d9 3a 9b bf cd 6e 4f bc ca 42 d2 bd f5 59 8e bf
       -1.2127334 -0.012660694 -0.10266645 -1.1121203
000040 e6 b4 43 be 33 ce 29 bf 52 2f 8f 3f b6 d7 da 3d
       -0.19111976 -0.6633026 1.1186316 0.10685675
000050 e3 e6 24 bf 25 d9 cf 3c d2 cf 08 c0 9f 8b ed 3d
       -0.64414805 0.025372097 -2.1376843 0.11598896
000060 34 87 9a bf
       -1.2072511

fc3.weight f4 [1, 25]
000000 32 19 8d bf 08 79 4a bf d1 79 59 bf 0b 14 01 3f
       -1.1023314 -0.7909093 -0.849515 0.5042121
000010 8a a1 5e be 4d f0 26 c0 10 87 b6 3f 6a 60 07 3f
       -0.2174131 -2.6084168 1.4259968 0.5288149
000020 6d 69 df 3f ca f2 1b 3f 93 6b 8b 3f 60 1b 81 39
       1.7454048 0.6091734 1.0892204 0.00024625193
000030 f0 76 9b 3f 07 af f1 3e b5 eb 68 bf 6e ed 06 c0
       1.2145672 0.47203848 -0.9098466 -2.1082416
000040 27 6c bd be 27 e8 c3 ba 1f 77 94 bf 21 9f b3 3e
       -0.36996576 -0.0014946506 -1.1598853 0.35082343
000050 00 f2 9d 39 cb 8f 27 bd 83 64 91 c0 07 63 ad 3e
       0.00030125678 -0.040908616 -4.5435195 0.33864614
000060 d2 34 3a 40
       2.909474
