vanderpol/ICCAD_models/actor_2900.pth (torch_old, 1226 bytes, 3 tensors)

fc1.weight f4 [25, 2]
000000 1d 16 90 bf 16 b7 b8 be d1 f5 47 bf ed d9 b9 3e
       -1.1256748 -0.36077183 -0.7810946 0.36299077
000010 08 44 de be e3 ce f9 bd 43 ae a0 bf a0 e0 06 bf
       -0.4341128 -0.12197664 -1.255318 -0.526865
000020 44 36 b1 be a8 a7 1d bf d3 5c ec be 4f 93 b7 be
       -0.34611714 -0.6158395 -0.4616457 -0.35854575
000030 db 8d 81 bf 9e 9b 75 3e fa 63 61 bf bb 09 ac bf
       -1.0121416 0.23985144 -0.8804318 -1.344047
000040 99 22 b6 be e7 fa 8b 3e 4b 65 4a bf b6 19 ad be
       -0.3557327 0.2733986 -0.7906081 -0.33808678
000050 69 d1 98 bf 8d df 38 bf a7 7f 19 3e 29 0e 07 3e
       -1.1938907 -0.7221611 0.14990102 0.13188995
000060 c1 ce 03 bf a9 76 19 bd 58 00 6a bf 2f 5d 21 bf
       -0.51487356 -0.03746668 -0.91406775 -0.6303281
000070 2a bd 0d c0 d8 22 ad bf 86 37 8e 3e 32 c7 91 be
       -2.2146707 -1.3526258 0.27776736 -0.28472286
000080 50 af 0a 3f 00 ef 99 3f 66 2f cf 3d b2 6b 99 3d
       0.54173756 1.2026062 0.101164624 0.074912444
000090 61 54 8a bf 34 90 9a 3e 7e e1 89 bf e7 35 b5 bc
       -1.0807 0.30188143 -1.077194 -0.02212043
0000a0 90 a5 f6 bc 19 c4 05 3e dd 46 ad be b8 e1 e3 be
       -0.030108243 0.13063087 -0.33843127 -0.44508147
0000b0 b7 05 23 bf 74 dd eb be a2 3c 50 bf 72 04 97 be
       -0.63680595 -0.46067393 -0.8134252 -0.2949558
0000c0 91 23 11 bf 44 fb 3e bd
       -0.56694895 -0.046626344

fc1.bias f4 [25]
000000 50 3b fd 3d 70 c4 3e bf 7f 60 84 bf e6 19 47 3e
       0.123648286 -0.7451849 -1.0341948 0.19443473
000010 4f ca 4f 3e f8 67 c8 bf f8 36 6e 3f 6d f8 93 3d
       0.20292018 -1.5656729 0.93052626 0.07225118
000020 58 46 a7 bf 87 1b 84 3e e2 f0 8b 3d b6 b5 1a bf
       -1.3068342 0.25802252 0.06833054 -0.6043352
000030 d9 3a 9b bf 55 29 0f 3b 02 ad 8e 3c f5 59 8e bf
       -1.2127334 0.0021844704 0.01741648 -1.1121203
000040 f9 49 a1 bd 33 ce 29 bf 44 10 8a 3f 90 e4 0e 3e
       -0.07875437 -0.6633026 1.0786214 0.13954377
000050 e3 e6 24 bf 15 c0 0f bc d2 cf 08 c0 ba d1 e5 3d
       -0.64414805 -0.008773823 -2.1376843 0.11221643
000060 34 87 9a bf
       -1.2072511

fc3.weight f4 [1, 25]
000000 5e 9e 7f bf ea 5c 57 bf 61 e0 6c bf c8 4c 03 3f
       -0.99851024 -0.8412615 -0.92529875 0.51289034
000010 be 58 4b be 4d f0 26 c0 d5 46 b8 3f 30 24 9b 3e
       -0.19858071 -2.6084168 1.4396616 0.30301046
000020 6d 69 df 3f 80 bd 11 3f 1f 14 7a 3f 60 1b 81 39
       1.7454048 0.5692978 0.9768695 0.00024625193
000030 f0 76 9b 3f 51 08 b6 3e 6a aa 40 bf 6e ed 06 c0
       1.2145672 0.3555322 -0.7526003 -2.1082416
000040 4b b3 76 be 27 e8 c3 ba 82 94 8f bf c4 39 a0 3e
       -0.24091832 -0.0014946506 -1.1217196 0.31294072
000050 00 f2 9d 39 f8 f2 2a bd 83 64 91 c0 eb f4 a3 3e
       0.00030125678 -0.04173562 -4.5435195 0.32022795
000060 d2 34 3a 40
       2.909474
